resnet10_final.onnx (onnx, 76976 bytes, 6 tensors)

_orig_mod.fc.bias f4 [8]
0	0x3cdaf594	0.026728429
1	0x3cdb589f	0.026775656
2	0xbd1c0818	-0.038093656
3	0xbcbb78f1	-0.022884818
4	0xbbc3673d	-0.0059632347
5	0xbd4f806f	-0.050659593
6	0xbd4c2bc0	-0.04984641
7	0x3c105097	0.008808277

_orig_mod.conv1.0.weight_bias f4 [24]
0	0x409385a2	4.6100626
1	0x3fb1bf1e	1.3886449
2	0x3f8f998c	1.1218734
3	0xc00e2298	-2.2208614
4	0x3f51ffd6	0.82031
5	0x3fb23e4d	1.3925263
6	0x3f3a69be	0.728176
7	0xbfb489ac	-1.4104514
8	0x3ff4ae0f	1.9115618
9	0x3fddbdb9	1.7323524
10	0x3f584824	0.8448508
11	0x3ff92dac	1.9467063
12	0xc0ca6ebf	-6.326019
13	0x4048b3df	3.1359785
14	0x3f494886	0.78626287
15	0x4004c754	2.074666
16	0x40688dff	3.6336668
17	0xbf8328f0	-1.0246868
18	0x4058d99f	3.3882825
19	0xc144b648	-12.294502
20	0xc1054bcf	-8.331008
21	0xbeb55e40	-0.3542347
22	0x3f1da0d1	0.6157351
23	0x3ffa7d0d	1.9569412

_orig_mod.conv1.3.weight_bias f4 [32]
0	0x41174b32	9.455858
1	0x40a22efc	5.0682354
2	0x40b55a7d	5.667296
3	0x3fd727f3	1.6809067
4	0x3fe2dd73	1.7723831
5	0x418a906c	17.320518
6	0x3f5b17e5	0.85583335
7	0xc00ce904	-2.2017221
8	0x3ee0226a	0.43776256
9	0x3f524218	0.821321
10	0x40b4744e	5.6391973
11	0x4003a104	2.0567026
12	0x3ff7e4b5	1.9366671
13	0x406158a9	3.5210364
14	0x400c46e8	2.1918278
15	0x3fa5526f	1.2915782
16	0x41146dbe	9.276793
17	0xbea4cbcb	-0.32186732
18	0x40eeebec	7.466299
19	0x402a99af	2.66563
20	0x40168073	2.35159
21	0x3ff047ad	1.8771874
22	0x405b92f6	3.4308448
23	0x40c1e976	6.0597486
24	0x40f2812c	7.578268
25	0x3f047c00	0.5175171
26	0x4028386a	2.6284432
27	0x40e6fa86	7.2180815
28	0xbfddf705	-1.7341009
29	0x401a1760	2.4076767
30	0x3fb63354	1.4234414
31	0x402ab442	2.667252

_orig_mod.conv1.6.weight_bias f4 [64]
0	0x3f8fc096	1.1230648
1	0x40279290	2.6183205
2	0x3fa3f370	1.2808666
3	0xbcaa6630	-0.02080068
4	0x3fcc2eae	1.5951746
5	0x3fccf833	1.6013244
6	0x3f07b110	0.5300455
7	0x3f874d07	1.0570382
8	0x3f8a2c5c	1.0794787
9	0x3feae281	1.8350374
10	0x3f552c8f	0.83271116
11	0x3f0a6387	0.54058117
12	0x3f78a047	0.97119564
13	0x40942638	4.6296654
14	0x3f72f128	0.94899225
15	0x3f9e9af3	1.2391037
16	0x3f9e4eda	1.2367814
17	0x3ea64976	0.3247792
18	0x3f568803	0.8380129
19	0xbefef271	-0.49794343
20	0x3fb9ac10	1.4505634
21	0xbfc7d966	-1.561322
22	0x400a59bd	2.1617272
23	0x404071bc	3.0069418
24	0x3e373800	0.17892456
25	0xbd80f770	-0.06297195
26	0x3f683052	0.9069873
27	0x3f917fcc	1.1367126
28	0x3f519eec	0.8188312
29	0x40895ee2	4.2928324
30	0x3eac8d8b	0.3370174
31	0x3ff6a752	1.9269812
32	0x3f97f029	1.1870166
33	0x3fb61123	1.422398
34	0x3eaba3be	0.33523363
35	0x3fbfae8d	1.4975144
36	0xbe180537	-0.1484574
37	0x400940e7	2.1445863
38	0x400840a0	2.1289444
39	0x3fa010dc	1.2505145
40	0x403358f8	2.8023052
41	0x4090f8c4	4.530367
42	0x3f2699d6	0.65078485
43	0x3f19107e	0.5979079
44	0x3f79ee34	0.97629094
45	0x3e9b203a	0.30298024
46	0x3ecf9ba4	0.40548432
47	0x3fb38246	1.4024131
48	0x414d2db8	12.823662
49	0x3fde83cf	1.7383975
50	0x3fa990fa	1.3247368
51	0x3fe65d5f	1.7997245
52	0x3ef7dd2f	0.48410937
53	0x401c285a	2.4399629
54	0x3e3111b8	0.17291915
55	0x400c492c	2.191966
56	0xbf9536a7	-1.1657304
57	0x3fb4b09f	1.41164
58	0xbbe30800	-0.006928444
59	0x3f8f21a8	1.1182146
60	0xbeb94c1e	-0.36190885
61	0x40017459	2.0227263
62	0x3fec97ed	1.8483864
63	0x3f2527a8	0.64513636

_orig_mod.layer1.0.conv1.weight_bias f4 [64]
0	0xc11b54eb	-9.708232
1	0x3cd20280	0.025635958
2	0xbf0c7394	-0.5486386
3	0x3f341a8c	0.7035301
4	0x3fb78c90	1.4339771
5	0x3f86ded6	1.0536754
6	0x4066b90f	3.605045
7	0xc0388f35	-2.8837407
8	0x3f2af60f	0.66781706
9	0xbfee6906	-1.8625801
10	0x4010ed83	2.2644966
11	0x3fe2dabe	1.7723005
12	0x3f8a8db2	1.0824492
13	0xbfd503ab	-1.6641744
14	0x3ff1dc2d	1.8895317
15	0x3ffd6fca	1.979974
16	0x40415450	3.020771
17	0xc01e1ef8	-2.4706402
18	0x3ff3f403	1.9058841
19	0x3e144f38	0.14483345
20	0xbd174a20	-0.036935925
21	0x400411bf	2.0635831
22	0x3eafc066	0.34326476
23	0xbe96e39e	-0.29470533
24	0x401b2772	2.4242826
25	0x400a83ab	2.1642864
26	0xc072d22a	-3.7940774
27	0xc020167d	-2.5013726
28	0x40083016	2.127935
29	0xc00ab6c0	-2.1674042
30	0xbf949826	-1.1608932
31	0xc0375f79	-2.8652022
32	0x4006187f	2.0952451
33	0x3f82fd22	1.02335
34	0xbfe7e465	-1.8116575
35	0xbe912b6c	-0.2835344
36	0xbdcf8108	-0.10132033
37	0xbff453b6	-1.9088047
38	0xbfef3edb	-1.8691057
39	0x3f05a307	0.52201885
40	0x4020a02f	2.5097768
41	0x4012df22	2.294869
42	0xc087a7ec	-4.2392483
43	0x3da4d8a0	0.080491304
44	0xbfa7916a	-1.3091252
45	0x3e30a264	0.17249447
46	0x40147009	2.319338
47	0xbde4d612	-0.11173643
48	0x3f5b458f	0.85653013
49	0x3fac03c5	1.343865
50	0xc01ac0f7	-2.4180276
51	0xbf031b7d	-0.5121382
52	0xc012dfad	-2.294902
53	0x3f5e309c	0.8679292
54	0xbfad4a52	-1.3538306
55	0x3fa2badd	1.2713276
56	0xc11d85f0	-9.8452
57	0xbfe0768b	-1.7536176
58	0x40c14a81	6.0403447
59	0x40494aaa	3.1451821
60	0xc0899e56	-4.300578
61	0x3c41fec0	0.011840522
62	0x3fbe8150	1.4883213
63	0x3fde9592	1.7389395

_orig_mod.layer1.0.conv2.weight_bias f4 [64]
0	0x40c08cf0	6.0172043
1	0x3f433c71	0.762641
2	0xbfa73a66	-1.3064697
3	0x40ba73dc	5.826643
4	0xbdcbd340	-0.09952402
5	0x40432f59	3.0497649
6	0x3ea560ea	0.32300502
7	0x4015df52	2.3417554
8	0x4018eb1e	2.3893504
9	0x401d9518	2.462225
10	0xbf07a665	-0.5298827
11	0x406e8b66	3.7272582
12	0xc0072ff6	-2.1123023
13	0xbfe327e9	-1.7746555
14	0x4034e0ce	2.826221
15	0x40aa5b53	5.323648
16	0x3d48f0af	0.04905766
17	0x404bbc38	3.183363
18	0x3fd777cc	1.6833434
19	0x3f9dd749	1.2331325
20	0xbffb5f11	-1.9638387
21	0x40cf8d8a	6.4860277
22	0xbf4bee08	-0.7966008
23	0x3fb58b03	1.4183048
24	0x40184890	2.3794289
25	0x3f239808	0.63903856
26	0xbf4376db	-0.76353234
27	0x4040a540	3.010086
28	0x3f694142	0.911152
29	0xc0034d82	-2.0516057
30	0x4085c2c3	4.1800246
31	0x3f67ac7c	0.90497565
32	0x3f9c589d	1.2214543
33	0x402264d0	2.537403
34	0x3f666d3a	0.90010417
35	0xc005406a	-2.0820565
36	0x3f820d6d	1.0160347
37	0x407cbb79	3.9489424
38	0x3feb2ab6	1.8372409
39	0x4082f093	4.091867
40	0x40332eba	2.799727
41	0xbebf6328	-0.37380338
42	0x3f2cb3e0	0.6746197
43	0x3f062a0c	0.5240791
44	0x3eaf4dc8	0.3423903
45	0x4101314b	8.074534
46	0x405ccf40	3.4501495
47	0x4053f63a	3.3119035
48	0xbf5d3ee4	-0.8642409
49	0x3fd2e012	1.6474631
50	0x3fad5ee2	1.3544581
51	0xbe255906	-0.16147241
52	0x3ff02328	1.8760729
53	0x40642b17	3.56513
54	0x404f0d02	3.235169
55	0x3f8975fc	1.0739131
56	0x3fc52030	1.5400448
57	0x3fe8e147	1.8193749
58	0x3f8c576d	1.096418
59	0x402a7b49	2.6637747
60	0x401f598b	2.4898403
61	0x4050df0e	3.2636142
62	0x402a7fc3	2.664048
63	0x3fee28c9	1.8606197
